root@7686e42ed424:/home/workspace/ImageClassifier# python train.py data_dir=/home/workspace/ImageClassifier/flowers --arch vgg16 --save_dir /home/workspace/ImageClassifier --epochs 15 --learning_rate 0.0001 --dropout_p 0.5 --hidden_units 4096 2048 1024 512 --gpu
Get CLI arguments ...
Load data ...
Load mapping of categories to label names ...
Create model ...
Define device ...
*****
Model
*****
VGG(
  (features): Sequential(
    (0): Conv2d(3, 64, kernel_size=(3, 3), stride=(1, 1), padding=(1, 1))
    (1): ReLU(inplace)
    (2): Conv2d(64, 64, kernel_size=(3, 3), stride=(1, 1), padding=(1, 1))
    (3): ReLU(inplace)
    (4): MaxPool2d(kernel_size=2, stride=2, padding=0, dilation=1, ceil_mode=False)
    (5): Conv2d(64, 128, kernel_size=(3, 3), stride=(1, 1), padding=(1, 1))
    (6): ReLU(inplace)
    (7): Conv2d(128, 128, kernel_size=(3, 3), stride=(1, 1), padding=(1, 1))
    (8): ReLU(inplace)
    (9): MaxPool2d(kernel_size=2, stride=2, padding=0, dilation=1, ceil_mode=False)
    (10): Conv2d(128, 256, kernel_size=(3, 3), stride=(1, 1), padding=(1, 1))
    (11): ReLU(inplace)
    (12): Conv2d(256, 256, kernel_size=(3, 3), stride=(1, 1), padding=(1, 1))
    (13): ReLU(inplace)
    (14): Conv2d(256, 256, kernel_size=(3, 3), stride=(1, 1), padding=(1, 1))
    (15): ReLU(inplace)
    (16): MaxPool2d(kernel_size=2, stride=2, padding=0, dilation=1, ceil_mode=False)
    (17): Conv2d(256, 512, kernel_size=(3, 3), stride=(1, 1), padding=(1, 1))
    (18): ReLU(inplace)
    (19): Conv2d(512, 512, kernel_size=(3, 3), stride=(1, 1), padding=(1, 1))
    (20): ReLU(inplace)
    (21): Conv2d(512, 512, kernel_size=(3, 3), stride=(1, 1), padding=(1, 1))
    (22): ReLU(inplace)
    (23): MaxPool2d(kernel_size=2, stride=2, padding=0, dilation=1, ceil_mode=False)
    (24): Conv2d(512, 512, kernel_size=(3, 3), stride=(1, 1), padding=(1, 1))
    (25): ReLU(inplace)
    (26): Conv2d(512, 512, kernel_size=(3, 3), stride=(1, 1), padding=(1, 1))
    (27): ReLU(inplace)
    (28): Conv2d(512, 512, kernel_size=(3, 3), stride=(1, 1), padding=(1, 1))
    (29): ReLU(inplace)
    (30): MaxPool2d(kernel_size=2, stride=2, padding=0, dilation=1, ceil_mode=False)
  )
  (classifier): Sequential(
    (fc1): Linear(in_features=25088, out_features=4096, bias=True)
    (relu1): ReLU()
    (dropout1): Dropout(p=0.5)
    (fc2): Linear(in_features=4096, out_features=2048, bias=True)
    (relu2): ReLU()
    (dropout2): Dropout(p=0.5)
    (fc3): Linear(in_features=2048, out_features=1024, bias=True)
    (relu3): ReLU()
    (dropout3): Dropout(p=0.5)
    (fc4): Linear(in_features=1024, out_features=512, bias=True)
    (relu4): ReLU()
    (dropout4): Dropout(p=0.5)
    (fc5): Linear(in_features=512, out_features=102, bias=True)
    (out_log_softmax): LogSoftmax()
  )
)
****************
Model parameters
****************
data_dir: /data/flowers
save_dir: /home/workspace/ImageClassifier
arch: vgg16
learning_rate: 0.0001
epochs: 15
hidden_units: [4096, 2048, 1024, 512]
gpu: True
batch_size: 32
dropout_p: 0.5
target_mapping: cat_to_name.json
train_datasets_class_t
…
